codes/8.结印识别/demo/saveModel/handsModel.pth (torch, 2447 bytes, 4 tensors)

conv1.weight f4 [3, 16]
0	0x3eb8612d	0.3601164
1	0x3eb10b79	0.34579065
2	0x3eec9243	0.4620534
3	0x3ebe02af	0.37111422
4	0xbef30387	-0.4746363
5	0xbf162f43	-0.58665866
6	0xbf1dc7dc	-0.61633086
7	0xbf040f5a	-0.51585925
8	0xbd9ddfec	-0.07708725
9	0xbe97c563	-0.29642782
10	0x3fc7a720	1.5597878
11	0xbf1676e4	-0.5877516
12	0xbf72568b	-0.94663304
13	0xbdeb4fd5	-0.11489836
14	0xbf29a085	-0.6626056
15	0xbf2b3efd	-0.6689299
16	0x3e61e0db	0.22058432
17	0x3f4271e4	0.75955033
18	0xbedfd2db	-0.43715557
19	0x3f44ca12	0.76870835
20	0x3e8e7ace	0.27828068
21	0x3db8f1ce	0.090304956
22	0xbda45a65	-0.08025054
23	0x3ec2bab7	0.38033077
24	0x3da2fda3	0.079585336
25	0x3e40f29c	0.18842548
26	0xbe17c84d	-0.14822502
27	0x3e55380a	0.20822158
28	0xbfa980f9	-1.3242484
29	0x3d14b196	0.03630217
30	0x3ef7dccd	0.48410645
31	0xbe798dfc	-0.24370569
32	0xbe373f18	-0.17895162
33	0x3d19e83d	0.037574995
34	0x3f958993	1.1682609
35	0x3d5acb28	0.0534164
36	0x3de0596a	0.109545544
37	0x3f2da2d2	0.6782657
38	0x3ef8d151	0.48597196
39	0xbf6ae051	-0.9174853
40	0x3fabc055	1.341807
41	0xbea39158	-0.31946826
42	0xbeb5d56b	-0.35514387
43	0x3e3a242e	0.18177864
44	0xbf1b3f4b	-0.6064345
45	0xbfe0e329	-1.7569324
46	0x3ed9fecb	0.42577204
47	0x3ebd9f9f	0.37035844

conv1.bias f4 [16]
0	0xbf0b8029	-0.5449243
1	0x3ed7d28f	0.4215283
2	0x3f17492e	0.5909604
3	0x3ef84412	0.48489434
4	0xbe860611	-0.26176503
5	0xbe45cf11	-0.19317271
6	0xbeb18292	-0.3466993
7	0x3e868de2	0.26280123
8	0x3e95641a	0.29177934
9	0x3c79b448	0.015240736
10	0xbf8dc94a	-1.1077054
11	0xbf1ba4c7	-0.60798305
12	0x3f268c86	0.6505817
13	0xbdb64da2	-0.08901526
14	0xbeaa3b83	-0.3324853
15	0xbf846ba9	-1.0345355

conv2.weight f4 [16, 6]
0	0xbeccf371	-0.4002948
1	0x3ee9621b	0.4558266
2	0x3d75e16b	0.06002943
3	0xbebe7656	-0.37199658
4	0x3e5270f1	0.20550896
5	0xbea525a1	-0.3225527
6	0xbf1e6d67	-0.61885685
7	0x3ef646fe	0.48101038
8	0xbf34d60c	-0.7063911
9	0x3dc26dba	0.09493585
10	0xbd8aac58	-0.06771153
11	0xbc69e182	-0.014274957
12	0x3f0abdbb	0.54195756
13	0x3f8081e8	1.0039644
14	0x3d559f6b	0.052153986
15	0xbf524971	-0.8214331
16	0xbfa0ae57	-1.2553204
17	0xbf285f51	-0.6577044
18	0xbe41a717	-0.18911396
19	0x3ecb96dd	0.39763537
20	0xbf665c26	-0.8998436
21	0x3d64bb97	0.055842962
22	0x3e836d19	0.25669172
23	0xbe0a767f	-0.13521765
24	0xbe8c1abe	-0.27364153
25	0x3da9feda	0.08300562
26	0x3eabe772	0.33575016
27	0xbd457572	-0.048207708
28	0x3f36d394	0.7141659
29	0xbf0e468c	-0.55576396
30	0xbbebef04	-0.0072001237
31	0xbedf30f7	-0.43592045
32	0x3f2d887b	0.6778638
33	0x3e6652ab	0.22492473
34	0xbeccd1ec	-0.40003908
35	0xbcfdb40a	-0.030969638
36	0x3eb927d9	0.36163214
37	0xbf71a9d1	-0.94399744
38	0x3ebb45d2	0.36576706
39	0x3ea17450	0.31534052
40	0x3f152fd1	0.5827609
41	0xbdc30cc9	-0.09523923
42	0x3f2ba7ba	0.67052805
43	0x3e632fae	0.22186157
44	0x3ef02901	0.46906283
45	0xbf930f1a	-1.1488984
46	0xbf1ea9a9	-0.6197763
47	0xbe0d7e76	-0.13817772
48	0x3f0fd614	0.5618603
49	0x3e2351f3	0.1594923
50	0x3d6315aa	0.055440582
51	0x3f232544	0.6372874
52	0xbfb7a4b8	-1.4347143
53	0xbcbe0c02	-0.023199085
54	0xbcbedf38	-0.023299798
55	0xbebd4666	-0.36967772
56	0xbea271da	-0.31727487
57	0xbf53286b	-0.8248355
58	0x3ef43e8a	0.47703964
59	0xbf146a86	-0.5797504
60	0xbf50db45	-0.8158458
61	0xbfb8e831	-1.4445859
62	0x3f0cc4fa	0.5498806
63	0x3f385129	0.7199884
64	0x3f739bca	0.9515959
65	0xbf1fa2ed	-0.6235798
66	0xbe8e933a	-0.278467
67	0xbe192e2e	-0.14959022
68	0x3e946264	0.28981316
69	0x3e417369	0.18891682
70	0x3ea8b8a8	0.32953382
71	0x3e987384	0.2977563
72	0x3ecb036b	0.39651045
73	0xbe8d29ea	-0.2757104
74	0xbff03761	-1.87669
75	0xbe2cf883	-0.16891675
76	0x3f10c7cb	0.5655486
77	0xbf4afd22	-0.792925
78	0x3e823a52	0.2543512
79	0x3ea3d2fb	0.31996903
80	0x3e9f6077	0.31128284
81	0x3e500fde	0.20318553
82	0xbfe26d87	-1.7689675
83	0x3dccd387	0.10001283
84	0xbecaa43c	-0.39578426
85	0xbe3fcc53	-0.18730287
86	0x3eeec480	0.46634293
87	0x3f0f8695	0.5606473
88	0x3da9f455	0.08298556
89	0x3e98962f	0.2980208
90	0xbe25e309	-0.16199888
91	0xbf4b7a2e	-0.79483306
92	0x3eb0c020	0.3452158
93	0xbf064f7c	-0.52465034
94	0x3f63a8a4	0.889292
95	0xbe0bf3c9	-0.13667215

conv2.bias f4 [6]
0	0x3f2979ec	0.66201663
1	0x3e224b36	0.15849003
2	0xbf2b7685	-0.6697772
3	0xbe9b4d10	-0.30332232
4	0xbf3d98fb	-0.74061555
5	0xbdb17c59	-0.086662956
